{
    "format":"layers-model",
    "generatedBy":null,
    "convertedBy":"TensorFlow.js Converter v4.20.0",
    "modelTopology":null,
    "weightsManifest":[
       {
          "paths":[
        "https://raw.githubusercontent.com/Rubemaster/PYTerm.In.Web/main/group1-shard1of12.bin",
        "https://raw.githubusercontent.com/Rubemaster/PYTerm.In.Web/main/group1-shard2of12.bin",
        "https://raw.githubusercontent.com/Rubemaster/PYTerm.In.Web/main/group1-shard3of12.bin",
        "https://raw.githubusercontent.com/Rubemaster/PYTerm.In.Web/main/group1-shard4of12.bin",
        "https://raw.githubusercontent.com/Rubemaster/PYTerm.In.Web/main/group1-shard5of12.bin",
        "https://raw.githubusercontent.com/Rubemaster/PYTerm.In.Web/main/group1-shard6of12.bin",
        "https://raw.githubusercontent.com/Rubemaster/PYTerm.In.Web/main/group1-shard7of12.bin",
        "https://raw.githubusercontent.com/Rubemaster/PYTerm.In.Web/main/group1-shard8of12.bin",
        "https://raw.githubusercontent.com/Rubemaster/PYTerm.In.Web/main/group1-shard9of12.bin",
        "https://raw.githubusercontent.com/Rubemaster/PYTerm.In.Web/main/group1-shard10of12.bin",
        "https://raw.githubusercontent.com/Rubemaster/PYTerm.In.Web/main/group1-shard11of12.bin",
        "https://raw.githubusercontent.com/Rubemaster/PYTerm.In.Web/main/group1-shard12of12.bin"
          ],
          "weights":[
             {
                "name":"tf_albert_model_1/albert/embeddings/word_embeddings/weight",
                "shape":[
                   30000,
                   128
                ],
                "dtype":"float32"
             },
             {
                "name":"tf_albert_model_1/albert/embeddings/token_type_embeddings/embeddings",
                "shape":[
                   2,
                   128
                ],
                "dtype":"float32"
             },
             {
                "name":"tf_albert_model_1/albert/embeddings/position_embeddings/embeddings",
                "shape":[
                   512,
                   128
                ],
                "dtype":"float32"
             },
             {
                "name":"tf_albert_model_1/albert/embeddings/LayerNorm/gamma",
                "shape":[
                   128
                ],
                "dtype":"float32"
             },
             {
                "name":"tf_albert_model_1/albert/embeddings/LayerNorm/beta",
                "shape":[
                   128
                ],
                "dtype":"float32"
             },
             {
                "name":"tf_albert_model_1/albert/encoder/embedding_hidden_mapping_in/kernel",
                "shape":[
                   128,
                   768
                ],
                "dtype":"float32"
             },
             {
                "name":"tf_albert_model_1/albert/encoder/embedding_hidden_mapping_in/bias",
                "shape":[
                   768
                ],
                "dtype":"float32"
             },
             {
                "name":"tf_albert_model_1/albert/encoder/albert_layer_groups_._0/albert_layers_._0/attention/query/kernel",
                "shape":[
                   768,
                   768
                ],
                "dtype":"float32"
             },
             {
                "name":"tf_albert_model_1/albert/encoder/albert_layer_groups_._0/albert_layers_._0/attention/query/bias",
                "shape":[
                   768
                ],
                "dtype":"float32"
             },
             {
                "name":"tf_albert_model_1/albert/encoder/albert_layer_groups_._0/albert_layers_._0/attention/key/kernel",
                "shape":[
                   768,
                   768
                ],
                "dtype":"float32"
             },
             {
                "name":"tf_albert_model_1/albert/encoder/albert_layer_groups_._0/albert_layers_._0/attention/key/bias",
                "shape":[
                   768
                ],
                "dtype":"float32"
             },
             {
                "name":"tf_albert_model_1/albert/encoder/albert_layer_groups_._0/albert_layers_._0/attention/value/kernel",
                "shape":[
                   768,
                   768
                ],
                "dtype":"float32"
             },
             {
                "name":"tf_albert_model_1/albert/encoder/albert_layer_groups_._0/albert_layers_._0/attention/value/bias",
                "shape":[
                   768
                ],
                "dtype":"float32"
             },
             {
                "name":"tf_albert_model_1/albert/encoder/albert_layer_groups_._0/albert_layers_._0/attention/dense/kernel",
                "shape":[
                   768,
                   768
                ],
                "dtype":"float32"
             },
             {
                "name":"tf_albert_model_1/albert/encoder/albert_layer_groups_._0/albert_layers_._0/attention/dense/bias",
                "shape":[
                   768
                ],
                "dtype":"float32"
             },
             {
                "name":"tf_albert_model_1/albert/encoder/albert_layer_groups_._0/albert_layers_._0/attention/LayerNorm/gamma",
                "shape":[
                   768
                ],
                "dtype":"float32"
             },
             {
                "name":"tf_albert_model_1/albert/encoder/albert_layer_groups_._0/albert_layers_._0/attention/LayerNorm/beta",
                "shape":[
                   768
                ],
                "dtype":"float32"
             },
             {
                "name":"tf_albert_model_1/albert/encoder/albert_layer_groups_._0/albert_layers_._0/ffn/kernel",
                "shape":[
                   768,
                   3072
                ],
                "dtype":"float32"
             },
             {
                "name":"tf_albert_model_1/albert/encoder/albert_layer_groups_._0/albert_layers_._0/ffn/bias",
                "shape":[
                   3072
                ],
                "dtype":"float32"
             },
             {
                "name":"tf_albert_model_1/albert/encoder/albert_layer_groups_._0/albert_layers_._0/ffn_output/kernel",
                "shape":[
                   3072,
                   768
                ],
                "dtype":"float32"
             },
             {
                "name":"tf_albert_model_1/albert/encoder/albert_layer_groups_._0/albert_layers_._0/ffn_output/bias",
                "shape":[
                   768
                ],
                "dtype":"float32"
             },
             {
                "name":"tf_albert_model_1/albert/encoder/albert_layer_groups_._0/albert_layers_._0/full_layer_layer_norm/gamma",
                "shape":[
                   768
                ],
                "dtype":"float32"
             },
             {
                "name":"tf_albert_model_1/albert/encoder/albert_layer_groups_._0/albert_layers_._0/full_layer_layer_norm/beta",
                "shape":[
                   768
                ],
                "dtype":"float32"
             },
             {
                "name":"tf_albert_model_1/albert/pooler/kernel",
                "shape":[
                   768,
                   768
                ],
                "dtype":"float32"
             },
             {
                "name":"tf_albert_model_1/albert/pooler/bias",
                "shape":[
                   768
                ],
                "dtype":"float32"
             }
          ]
       }
    ]
 }
